Exercise1/best_model.pth (torch, 12134 bytes, 5 tensors)

fc1.weight f4 [64, 3]
0	0xbe0954fc	-0.13411325
1	0x3ca10050	0.01965347
2	0xbf0bf9ae	-0.54677856
3	0xbee81008	-0.4532473
4	0x3ec2aa44	0.38020527
5	0xbf09610a	-0.53663695
6	0x3ee3b353	0.4447275
7	0x3d2b6af2	0.041850038
8	0x3e6c0857	0.23050056
9	0x3f059a0d	0.5218819
10	0xbea4fa04	-0.32221997
11	0xbd7e6800	-0.0621109
12	0x3dae5392	0.085120335
13	0x3e29fe5e	0.1660094
14	0xbf052845	-0.5201457
15	0x3e522036	0.205201
16	0xbeae5331	-0.34047845
17	0x3d9b4f5f	0.07583498
18	0x3ea7e7f1	0.32794145
19	0xbde9bfc8	-0.114135325
20	0xbd92fb37	-0.07176822
21	0xbe2f9115	-0.17145188
22	0x3ebbcd6f	0.3668017
23	0x3e5b5c2c	0.2142188
24	0x3dc6d878	0.09709257
25	0xbeb1e60a	-0.34745818
26	0xbea08606	-0.31352252
27	0x3e9474ad	0.28995267
28	0x3e89298d	0.26789513
29	0x3e9a4a3f	0.3013477
30	0xbee7bfbb	-0.45263466
31	0x3ed09c8b	0.40744433
32	0xbca70f4a	-0.020393033
33	0x3ed0c36a	0.4077409
34	0x3ef0532d	0.46938458
35	0x3e16163d	0.1465692
36	0xbe8bb883	-0.2728921
37	0x3f08f9a7	0.5350594
38	0xbee11efc	-0.43968952
39	0x3ec126cd	0.37724915
40	0xbf0db9be	-0.55361545
41	0xbe39f12d	-0.18158408
42	0xbf00dc90	-0.5033655
43	0xbe8499c2	-0.25898558
44	0x3e7b09a2	0.24515393
45	0xbed3cede	-0.41368765
46	0xbeffa392	-0.49929482
47	0x3ed35de8	0.41282582
48	0x3e946e10	0.2899022
49	0xbcfcbd83	-0.030852085
50	0xbeee9f13	-0.4660574
51	0xbe1ca1d7	-0.15296112
52	0xbe3f6bd5	-0.18693478
53	0x3eb68fd1	0.35656598
54	0xbe416032	-0.18884352
55	0xbe2a46d9	-0.16628589
56	0xbed18a88	-0.40926003
57	0xbe9dba55	-0.30806223
58	0x3e84c87c	0.25934207
59	0x3e9de8fe	0.3084182
60	0x3d725a04	0.059167877
61	0xbe42a91d	-0.19009824
62	0x3f1449da	0.5792519
63	0x3de9627a	0.11395736
64	0xbe643424	-0.22285515
65	0xbe4ce91b	-0.20010798
66	0xbdfc6d9f	-0.12325596
67	0x3e748803	0.2388001
68	0x3e142b72	0.14469698
69	0x3ecb19a3	0.39667997
70	0xbd5e5a1e	-0.05428516
71	0x3f174d03	0.59101886
72	0xbe702401	-0.23451234
73	0xbe88241c	-0.2659005
74	0xbe5a54c1	-0.21321394
75	0xbf0aab30	-0.5416746
76	0xbec20bbd	-0.3789958
77	0xbf05bdf4	-0.5224297
78	0xbd0bc175	-0.034120042
79	0x3bb25a97	0.005442928
80	0xbe19716a	-0.1498467
81	0xbee673d8	-0.45010257
82	0x3f00bbe7	0.50286716
83	0xbeb98db2	-0.36240917
84	0x3e7ae352	0.24500778
85	0x3e9fca75	0.3120915
86	0xbe963a12	-0.2934118
87	0xbe6f7692	-0.23385075
88	0x3e29e85b	0.16592543
89	0x3ee4f339	0.44716814
90	0xbdd6974e	-0.10478078
91	0x3ecdfa95	0.4023024
92	0xbf18a5a5	-0.59627753
93	0xbef6afe9	-0.48181084
94	0x3eada8a3	0.33917722
95	0xbe46d26c	-0.19416207
96	0x3f09e11c	0.53859115
97	0x3ce151a7	0.027504755
98	0xbebc1758	-0.3673656
99	0x3ee2bd30	0.44284964
100	0x3eabefdf	0.33581445
101	0xbd29239d	-0.04129373
102	0xbeb33242	-0.3499928
103	0xbcccc78c	-0.024997495
104	0xbe8e291f	-0.27765748
105	0x3ec45505	0.38346115
106	0xbcbbbbfa	-0.022916783
107	0x3e68f942	0.22751334
108	0x3e416e68	0.18889773
109	0x3d74e44e	0.05978804
110	0xbf019987	-0.5062489
111	0x3eb3930d	0.35073128
112	0x3e812ffb	0.2523192
113	0xbea4b103	-0.321663
114	0x3ec09213	0.37611446
115	0x3dd0626c	0.101750225
116	0xbd9a0c5a	-0.07521887
117	0xbed36798	-0.41289973
118	0xbdc4307e	-0.09579562
119	0xbf10e942	-0.56605923
120	0x3e92d2cd	0.28676453
121	0x3eb55574	0.35416758
122	0xbe15e8af	-0.14639543
123	0x3f001a76	0.50040376
124	0xbe843828	-0.25824094
125	0x3d6c01d4	0.05761893
126	0xbece0113	-0.40235195
127	0xbcc7f654	-0.02440945
128	0x3e6efbc0	0.23338223
129	0x3e7f2dd1	0.24919821
130	0x3c7fc501	0.015610934
131	0xbeb67d79	-0.35642603
132	0x3eba16af	0.3634543
133	0x3eaa564a	0.33268958
134	0x3e45c231	0.1931236
135	0xbe999100	-0.2999344
136	0x3df214df	0.11820387
137	0xbe07463f	-0.1321039
138	0x3ef794c8	0.483557
139	0x3d7f92a8	0.06239572
140	0xbdca4b92	-0.09877695
141	0x3c099a38	0.008398585
142	0x3e92c358	0.2866466
143	0xbe09ea76	-0.13468346
144	0x3eeaa6dd	0.45830432
145	0x3e8eff0e	0.27928966
146	0xbf11ebf4	-0.5700066
147	0xb6ddb3d7	-6.6072494e-06
148	0xbefae8ff	-0.49005887
149	0xbee2f77e	-0.44329447
150	0x3cb502df	0.022096096
151	0x3d85c029	0.06530792
152	0xbe6b75f4	-0.22994214
153	0x3f07fdb6	0.5312151
154	0xbea355ee	-0.31901497
155	0xbe9718a7	-0.29510996
156	0xbdbd5bbc	-0.092460126
157	0x3b656939	0.0035005345
158	0xbd484e72	-0.048902936
159	0x3f10b231	0.565219
160	0xbe5333e2	-0.2062526
161	0xbea0d278	-0.31410575
162	0xbc5bec39	-0.013423019
163	0x3ec03189	0.37537792
164	0xbd09db40	-0.03365636
165	0x3e661123	0.22467475
166	0x3d0e6606	0.034765266
167	0x3ef55f40	0.47924232
168	0x3eaafa42	0.33394057
169	0x3ec4afe9	0.3841546
170	0x3c60aaf9	0.013712638
171	0xbef4ba8a	-0.47798568
172	0xbe8c3942	-0.27387434
173	0x3e4967c7	0.19668494
174	0x3e95f08b	0.29285082
175	0xbe8d9e40	-0.27659798
176	0x3f0a3db1	0.54000384
177	0x3da0d5e8	0.078532994
178	0xbc864130	-0.016388506
179	0x3df8afad	0.121428825
180	0xbdf6f482	-0.12058355
181	0x3f02254f	0.5083818
182	0x3df4a6f9	0.1194591
183	0x3eb50f47	0.35363218
184	0xbef97e49	-0.4872916
185	0xbe984d11	-0.29746297
186	0x3d87d189	0.066317625
187	0x3edce67e	0.43144602
188	0x3ec19d7c	0.37815464
189	0x3de133ac	0.10996184
190	0xbf1206dc	-0.57041717
191	0x3c31d4a5	0.010853921

fc1.bias f4 [64]
0	0xbec320d5	-0.38110986
1	0xbf16e61a	-0.5894486
2	0x3e128a10	0.14310479
3	0xbeb964c7	-0.362097
4	0x3f08d5b1	0.5345107
5	0xbea0ac3a	-0.31381398
6	0x3db9713d	0.090548016
7	0x3e864565	0.2622482
8	0xbee5c100	-0.4487381
9	0x3e79b66c	0.24385995
10	0xbd85918c	-0.065219015
11	0x3eb7c32b	0.3589109
12	0x3eee31cc	0.46522367
13	0xbe7bf3ad	-0.24604674
14	0xbe8006e7	-0.25005266
15	0x3eeadf14	0.4587332
16	0x3d7a808b	0.061157744
17	0xbd6bd9c6	-0.05758073
18	0x3ee043cf	0.43801734
19	0xbed179ed	-0.40913334
20	0xbc3026eb	-0.010751466
21	0x3ecb0af4	0.39656794
22	0x3e20a044	0.15686136
23	0xbea95ca3	-0.3307849
24	0x3e19aa16	0.15006289
25	0xbee160fc	-0.44019306
26	0xbea088c9	-0.3135436
27	0x3e826f5f	0.25475594
28	0xbe224ca2	-0.15849546
29	0xbeb2f13d	-0.34949675
30	0xbd854d8f	-0.06508934
31	0xbd824fa5	-0.06362847
32	0xbeeba480	-0.4602394
33	0xbefe4125	-0.49659076
34	0xbf0f2430	-0.5591459
35	0x3e46a8a3	0.19400267
36	0xbf026c4b	-0.5094649
37	0xbd53d83d	-0.051719893
38	0xbdd4134b	-0.10355242
39	0xbec1487f	-0.37750623
40	0xbe2d4569	-0.16921009
41	0xbf016079	-0.5053783
42	0xbe9c78fa	-0.30561048
43	0xbda8793e	-0.0822625
44	0xbef4b876	-0.47796983
45	0xbf18dd44	-0.59712625
46	0x3ead811f	0.33887574
47	0xbd325718	-0.04354009
48	0xbeba4107	-0.36377737
49	0xbc9d4131	-0.019196125
50	0x3eb2b98e	0.34907192
51	0xbef44418	-0.477082
52	0xbe9cb95a	-0.30610162
53	0xbeaad013	-0.33361873
54	0xbe306503	-0.17226033
55	0xbc93c24e	-0.018036988
56	0xbecdb71d	-0.40178767
57	0x3ecd2c6c	0.40072954
58	0xbf067119	-0.52516323
59	0x3f1c63d3	0.6108982
60	0xbec25111	-0.37952474
61	0xbda20b60	-0.07912326
62	0x3e27b427	0.16377316
63	0xbe836396	-0.25661916

fc2.weight f4 [32, 64]
0	0x3deb6da8	0.11495525
1	0xbd747a3f	-0.059686895
2	0xbd545bba	-0.05184529
3	0xbdc64477	-0.096810274
4	0x3d45466d	0.048162866
5	0x3dda4326	0.10657339
6	0x3d9fb892	0.07798876
7	0xbc0b3e3f	-0.008498727
8	0xbd802a4a	-0.06258066
9	0x3dba5d97	0.09099882
10	0x3b866a24	0.0041020084
11	0x3d6d9928	0.05800739
12	0xbd94595c	-0.072436064
13	0xbd6d9da4	-0.058011666
14	0xbdd4839e	-0.103766665
15	0x3deb8d60	0.115015745
16	0xbc8b32a0	-0.016991913
17	0xbdb7db42	-0.08977367
18	0x3c2fe680	0.010736108
19	0xbda20af2	-0.07912244
20	0x3d6be973	0.05759568
21	0x3d29f1d0	0.041490376
22	0xbdb2a5f8	-0.08723062
23	0xbd75d5c1	-0.060018305
24	0xbda1a23a	-0.078922704
25	0x3cc55208	0.024086967
26	0xbdf72d64	-0.120692044
27	0x3c7fb09a	0.01560607
28	0x3deb6822	0.11494471
29	0x3db3d5f9	0.087810464
30	0x3d3b0471	0.045658533
31	0x3dbc6a94	0.09200016
32	0x3dc8a051	0.09796203
33	0x3c600507	0.013673074
34	0x3d2ac2e4	0.04168977
35	0xbd0595e7	-0.03261366
36	0x3deb04c6	0.1147552
37	0x3dbe60e1	0.09295822
38	0xbda66832	-0.081253424
39	0xbba86280	-0.0051386952
40	0xbda7eb95	-0.081992306
41	0xbce093b9	-0.02741419
42	0xbdf80fd8	-0.12112397
43	0x3d602cc4	0.05473019
44	0xbd796ff8	-0.060897797
45	0x3ddb83c6	0.10718493
46	0xbab4ac6d	-0.0013784297
47	0xbda78c95	-0.08181111
48	0x3d5393a9	0.05165449
49	0x3d596bbc	0.05308126
50	0xbded7d14	-0.115961224
51	0x3dd0fa6d	0.10204015
52	0x3ddc5a52	0.10759415
53	0xbc4ef9ea	-0.012632826
54	0xbd132689	-0.035925422
55	0xbc1857b4	-0.009298254
56	0xbdb6fe88	-0.08935267
57	0xbd2dfa28	-0.042474896
58	0x3d930c60	0.07180095
59	0x3a8e4d59	0.0010856792
60	0x3d016723	0.0315925
61	0xbdf42828	-0.11921722
62	0x3d9a6fcf	0.07540857
63	0xbd55db0c	-0.052210853
64	0x3ddd8bea	0.10817702
65	0x3e0df501	0.13862993
66	0x3cf0dca1	0.029402079
67	0x3dc0aa2c	0.09407458
68	0x3dd39ae1	0.10332275
69	0x3d9623ee	0.07331072
70	0xbd481666	-0.048849486
71	0x3dea3313	0.11435523
72	0x3d06314c	0.032761857
73	0x3d890666	0.066906735
74	0xbc7546b7	-0.014970473
75	0x3db6b2a5	0.089207925
76	0x3dff1619	0.12455387
77	0xbdc4290c	-0.095781416
78	0x3dd1deb0	0.102475524
79	0xbda93010	-0.0826112
80	0xbdc4ae9e	-0.09603618
81	0xbdd5ef7e	-0.1044607
82	0x3d13f288	0.036119968
83	0xbdc50086	-0.096192405
84	0xbd79bdb3	-0.060971927
85	0xbd80b004	-0.06283572
86	0x3d02fcec	0.031979486
87	0xbe342423	-0.1759191
88	0xbd6ab8d4	-0.057305172
89	0x3a6fb700	0.00091443956
90	0x3c37ea30	0.011225268
91	0xbd2ac524	-0.041691914
92	0x3d69baa7	0.05706277
93	0xbdbcd670	-0.09220588
94	0xbdb09b3e	-0.0862336
95	0xbb38483d	-0.002811923
96	0xbd8678fe	-0.06566046
97	0x3da31f65	0.079649724
98	0xbdaefb16	-0.085439846
99	0xbd00b430	-0.03142184
100	0x3d89a64f	0.06721174
101	0xbdcf1033	-0.10110512
102	0x3dc78d24	0.09743717
103	0xbd68a3dc	-0.056796893
104	0xbcf55764	-0.029948898
105	0xbdd0cdb8	-0.10195488
106	0xbd3eca60	-0.04657972
107	0xbc8abaa6	-0.016934704
108	0xbde70cdb	-0.11281749
109	0x3dc2c39e	0.09509967
110	0xbc574432	-0.013138818
111	0x3e00fdd5	0.12596829
112	0x3dc132de	0.0943353
113	0x3ddeb400	0.10874176
114	0x3d276330	0.040866077
115	0x3c392a79	0.01130163
116	0x3defb6ea	0.1170481
117	0x3df0fca5	0.11766938
118	0xbdc4b679	-0.096051164
119	0xbd64abbf	-0.055827852
120	0xbdf1ba79	-0.11803145
121	0x3b9af480	0.0047288537
122	0xbda63a67	-0.08116608
123	0x3dace9f9	0.08443064
124	0x3ccc8f8a	0.024970789
125	0x3ab45200	0.0013757348
126	0xbdbf638f	-0.09345161
127	0xbdc8e420	-0.098091364
128	0x3ca133b8	0.019677982
129	0xbd8d1704	-0.068891555
130	0xbd834d50	-0.064112306
131	0x3db39136	0.08767931
132	0xbd934cc0	-0.07192373
133	0xbd63e4c8	-0.055638105
134	0x3db77f90	0.089598775
135	0x3d2c5a3f	0.042078253
136	0xbd91760c	-0.07102594
137	0x3cfee06f	0.031112878
138	0x3d6654b4	0.056233123
139	0xbdf13333	-0.117773436
140	0x3c87cf39	0.016578304
141	0x3ce9f408	0.028558746
142	0xbb9f8700	-0.004868388
143	0x3df573fc	0.11985013
144	0xbdb481aa	-0.08813794
145	0x3d8ac826	0.067764565
146	0xbd87fdce	-0.06640206
147	0xbde9082f	-0.11378514
148	0x3d987258	0.07443684
149	0xbd759e28	-0.059965283
150	0xba689fde	-0.000887392
151	0x3d7201ed	0.059083868
152	0xbdd5ac38	-0.10433239
153	0xbddb2218	-0.10699862
154	0x3d2e50e8	0.042557627
155	0x3dd154db	0.10221263
156	0xbca3ad5e	-0.019980129
157	0x3da67266	0.081272885
158	0x3d183234	0.037157252
159	0x3cecb049	0.028892653
160	0xbdb0df82	-0.08636381
161	0x3de5d602	0.112224594
162	0x3d6a844c	0.057255074
163	0x3c4f60a6	0.01265732
164	0x3da74764	0.081679136
165	0xbde9c6a5	-0.114148416
166	0x3ca58a9a	0.020207692
167	0xbd710358	-0.05884108
168	0xbc9f4883	-0.019443756
169	0x3d0b72cd	0.03404503
170	0x3d62c360	0.055362105
171	0x3cdcb7b3	0.026943063
172	0xbdd3f249	-0.103489466
173	0xbdae3d8b	-0.08507832
174	0xbb943d57	-0.004523914
175	0xbce8b713	-0.02840761
176	0xbde4130a	-0.11136444
177	0x3dfc33dc	0.12314579
178	0x3c131669	0.008977511
179	0xbdb5e69e	-0.08881877
180	0x3d608e58	0.05482325
181	0x3d5e76ac	0.054312393
182	0xbd8b6ca4	-0.06807831
183	0x3d653b66	0.05596485
184	0xbdaca10e	-0.08429156
185	0x3d3165fc	0.04331015
186	0x3de3a8ac	0.11116156
187	0x3d9b3fee	0.07580553
188	0x3d610f85	0.05494644
189	0xbcd05588	-0.02543141
190	0x3c88e2f0	0.016709775
191	0x3d32aba4	0.04362072
192	0x3cfa1bd8	0.030530855
193	0xbccf7450	-0.025324017
194	0x3c8ee038	0.0174409
195	0xbd4f603c	-0.050628886
196	0xbd90b558	-0.070658386
197	0xbdec3f00	-0.11535454
198	0xbdd0b814	-0.1019136
199	0xbda0b1f2	-0.078464404
200	0x3df4b538	0.11948627
201	0x3ccceaf8	0.025014386
202	0xbde79536	-0.113077566
203	0xbd82dbf8	-0.06389612
204	0x3cef2f70	0.029197425
205	0xbd193eac	-0.037413284
206	0xbd10ed48	-0.03538254
207	0xbd40437c	-0.046939358
208	0xbcfa1a00	-0.030529976
209	0x3c6b9360	0.014378399
210	0x3bf28ec0	0.007402271
211	0x3da479b2	0.08031024
212	0x3da3d354	0.07999292
213	0x3dd2af92	0.10287394
214	0xbb824c60	-0.0039763898
215	0xbd649e3c	-0.055814967
216	0x39dfa200	0.00042654574
217	0xbda986e0	-0.082776785
218	0x3d517864	0.051140204
219	0xbc771790	-0.015081301
220	0xbd23fb48	-0.040034562
221	0xbdd90a32	-0.10597648
222	0x3d76bdc0	0.060239553
223	0x3d8ee496	0.06977193
224	0x3de987b4	0.114028364
225	0xbd3562e4	-0.044283763
226	0x3d1a4560	0.037663817
227	0x3b9a65a0	0.0047118217
228	0xbda3107a	-0.07962127
229	0xbda009c0	-0.0781436
230	0x3d831800	0.06401062
231	0xbd9306dc	-0.07179043
232	0x3dba6a3c	0.09102294
233	0x3d32df3c	0.043669924
234	0x3d2eda34	0.042688563
235	0x3da89868	0.08232194
236	0x3d7a94bc	0.061177
237	0x3d5cd110	0.053910315
238	0x3d84d2d0	0.06485522
239	0xbd59469c	-0.053045854
240	0xbd87c086	-0.06628518
241	0xbcbb9928	-0.022900179
242	0x3d8e1f82	0.069396034
243	0x3db327e2	0.087478414
244	0x3dbc857e	0.09205149
245	0xbd2180ec	-0.03942959
246	0xbc81ee10	-0.015860587
247	0xbdafd370	-0.085852504
248	0x3d9dd940	0.07707453
249	0xbda9c2b0	-0.08289087
250	0xbd52aea0	-0.051436067
251	0x3dd3655e	0.10322069
252	0x3cf8d860	0.030376613
253	0xbd5656e0	-0.052328944
254	0xbdac6218	-0.084171474
255	0xbdb00b68	-0.085959256

fc2.bias f4 [32]
0	0xbc128ffb	-0.00894546
1	0xbe2a26e2	-0.16616395
2	0xbd5f21ea	-0.054475702
3	0x3db3a1bc	0.08771083
4	0x3d80adb7	0.062831335
5	0xbd14358d	-0.036183883
6	0xbe07f34e	-0.13276407
7	0x3df92bf0	0.121665835
8	0xbcde5b3c	-0.027143113
9	0xbbcf1ca0	-0.006320551
10	0xbdd58dd8	-0.10427445
11	0xbd63292c	-0.055459186
12	0xbdbb4652	-0.09144272
13	0xbde012de	-0.10941099
14	0xbbfa477c	-0.007637916
15	0xbd61d678	-0.055136174
16	0x3e2b4d80	0.16728783
17	0x3da13c21	0.07872797
18	0x3dc71090	0.09719956
19	0xbdc2f1ef	-0.095188014
20	0x3c3fdcd4	0.011710364
21	0x3e053c0f	0.13011192
22	0xbdc617c6	-0.09672503
23	0x3d0415a3	0.032247197
24	0x3ce072aa	0.027398426
25	0xbc8b36b5	-0.01699386
26	0xbd09e384	-0.03366424
27	0x3c245c20	0.01003173
28	0xbd896e7c	-0.06710526
29	0x3d046c13	0.03232963
30	0xbd54cd54	-0.05195363
31	0xbd690439	-0.056888793

output.weight f4 [1, 32]
0	0xbbb14151	-0.0054093977
1	0xbc631869	-0.0138608
2	0xbd77880a	-0.06043247
3	0x3d3c1f13	0.045928072
4	0x3ca66133	0.02031002
5	0xbd1dbf6f	-0.038512643
6	0xbdb0de0f	-0.08636104
7	0xbe2dba3a	-0.16965571
8	0x3c59c73e	0.013292132
9	0x3e07c29b	0.1325783
10	0xbe06c34b	-0.13160436
11	0x3d3c3b45	0.04595496
12	0x3cb605fd	0.022219652
13	0xbdc2481f	-0.09486412
14	0x3bd172fa	0.00639188
15	0x3e0b9470	0.13630843
16	0x3dc7c3a2	0.09754111
17	0x3cf68765	0.030093858
18	0xbd0f92d0	-0.03505212
19	0xbb91ec5a	-0.004453224
20	0xbd66b950	-0.05632907
21	0xbb0c079a	-0.0021366836
22	0xbc54b1b2	-0.012981819
23	0x3dd568cc	0.10420379
24	0xbd29dd09	-0.04147056
25	0x3b3355e9	0.002736444
26	0xbd664ab8	-0.0562236
27	0x3c718718	0.0147416815
28	0x3e2e1362	0.16999581
29	0xbb0a4a50	-0.0021101423
30	0xbcfb2a3c	-0.030659787
31	0xbccf35a6	-0.025294136
